tanh_pinn_model_training_data9.pth (torch, 58854 bytes, 51 tensors)

fc1_u.weight f4 [20, 2]
0	0x3e94b506	0.2904436
1	0x3ec324d2	0.3811403
2	0xbd706722	-0.058692105
3	0xbf457c4d	-0.7714279
4	0xbe5780d1	-0.21045233
5	0x3f03f381	0.5154343
6	0xbe770c51	-0.24125792
7	0xbf25bd5e	-0.64742076
8	0xbea237e3	-0.31683263
9	0x3e945c6f	0.2897677
10	0xbed47abf	-0.41499898
11	0xbc77dc0c	-0.015128147
12	0x3f06bc66	0.52631223
13	0xbe95b6a4	-0.29240906
14	0x3de41653	0.111370705
15	0xbf110733	-0.5665161
16	0xbde08195	-0.10962216
17	0xbf0ff02e	-0.5622586
18	0x3cf53eb0	0.029937118
19	0xbf29bd98	-0.6630492
20	0x3bd27a62	0.0064232806
21	0x3f2457a3	0.64196223
22	0x3e754779	0.23953046
23	0x3ef8020d	0.48439065
24	0x3e496f1a	0.19671288
25	0x3ee76d36	0.4520051
26	0xbf145751	-0.57945734
27	0x3ec06c8b	0.37582812
28	0xbe4dc826	-0.20095882
29	0xbf0c6bff	-0.5485229
30	0xbdfa0155	-0.12207285
31	0xbf007457	-0.5017752
32	0x3efa2b62	0.48861223
33	0xbf1515a9	-0.58236176
34	0xbee15726	-0.440118
35	0x3ef030b4	0.46912158
36	0x3dd2c4ab	0.10291418
37	0x3eeff298	0.46864772
38	0xbeed04ba	-0.4629267
39	0x3f7cea37	0.98794883

fc1_u.bias f4 [20]
0	0xbe5ca1a1	-0.21546032
1	0x3e1eb449	0.15498461
2	0xbdc38a97	-0.09547918
3	0xbd3a192b	-0.04543416
4	0xbdab6d9d	-0.083705164
5	0xbb942035	-0.004520441
6	0x3e30655f	0.1722617
7	0x3ddddc90	0.108330846
8	0x3d5b6dad	0.05357139
9	0x3d887e9c	0.06664774
10	0xbdb6bb89	-0.08922488
11	0xbea75c4c	-0.32687604
12	0xbda9802a	-0.082763985
13	0x3e9f2d42	0.31089216
14	0x3d8aead5	0.06783072
15	0x3df7ca71	0.120991595
16	0x3d080349	0.033206258
17	0xbe2bb893	-0.16769628
18	0x3d4122dc	0.047152385
19	0x3d3ac79a	0.04560051

fc2_u.weight f4 [20, 20]
0	0xbd240c0e	-0.04005056
1	0x3e931410	0.28726244
2	0xbe3033d3	-0.1720727
3	0xbe182aeb	-0.14860122
4	0xbec8d843	-0.39227495
5	0xbebf0e89	-0.37315777
6	0xbe516be7	-0.20451318
7	0x3e5ce22a	0.2157065
8	0x3c0a5271	0.008442507
9	0x3e46c54e	0.19411203
10	0xbe5815e2	-0.21102098
11	0xbf0d9585	-0.55306274
12	0xbeabeb14	-0.33577788
13	0x3e416aef	0.18888448
14	0xbe3f0061	-0.18652488
15	0x3ec77afa	0.3896101
16	0x3dbd78d5	0.092515625
17	0xbe3b364b	-0.1828243
18	0x3d83bf6e	0.06432997
19	0xbe7d5190	-0.24738145
20	0x3e3877ca	0.18014446
21	0xbf4493e1	-0.76788145
22	0x3e57d291	0.21076418
23	0xbf129847	-0.57263607
24	0xbcb8761e	-0.02251726
25	0xbef5215a	-0.47877008
26	0x3e43d728	0.19125044
27	0xbea14ea7	-0.3150532
28	0xbef39d2d	-0.47580853
29	0xbe190a6a	-0.14945379
30	0x3f04243a	0.5161778
31	0x3edd1bd7	0.43185303
32	0x3f13a3b3	0.5767166
33	0x3de1ae84	0.11019614
34	0xbd98cec5	-0.07461313
35	0x3c12935f	0.008946269
36	0xbe1b935b	-0.1519293
37	0xbe9cf8a5	-0.3065845
38	0x3f087a8e	0.53312004
39	0x3ed445f4	0.4145962
40	0xbd5a1f17	-0.053252306
41	0xbeda0573	-0.42582282
42	0x3e4d4b2e	0.2004821
43	0xbe234d18	-0.15947378
44	0x3ea546ed	0.32280675
45	0xbe75760f	-0.23970817
46	0xbd81bf38	-0.063353
47	0x3dd0ad66	0.10189323
48	0x3eb30687	0.34965917
49	0x3ebf42cc	0.3735565
50	0xbe852b9b	-0.2600983
51	0xbee9ccf7	-0.45664188
52	0xbe890310	-0.2676015
53	0x3ebd49ff	0.36970517
54	0xbe9ac150	-0.3022561
55	0x3e923bfd	0.28561392
56	0xbe2db898	-0.16964948
57	0x3ea20a3e	0.3164844
58	0xbe86e8f8	-0.26349616
59	0xbeaa1764	-0.3322097
60	0xbe1963fa	-0.14979544
61	0x3c846b3f	0.01616442
62	0xbd2a3ecf	-0.041563805
63	0xbe4f5370	-0.20246673
64	0xbe8c02a6	-0.2734577
65	0xbea9b636	-0.33146828
66	0xbe9894cf	-0.29801032
67	0xbda5a7ef	-0.080886714
68	0x3e412e42	0.18865302
69	0xbd3819e1	-0.044946555
70	0xbec0b90d	-0.37641183
71	0x3f0e5ef0	0.55613613
72	0x3e7aa884	0.24478346
73	0xbe70798d	-0.23483868
74	0xbe8ba01c	-0.2727059
75	0x3de32cc4	0.11092523
76	0x3ec0d797	0.37664482
77	0xbd2f9aae	-0.042872123
78	0xbd4df2e9	-0.050280485
79	0xbe3d4d9a	-0.18486634
80	0xbbc7782a	-0.0060873227
81	0xbd4c6dc6	-0.049909376
82	0x3e1ba65d	0.15200181
83	0x3e76fbbf	0.24119471
84	0xbdc1957d	-0.09452341
85	0xbe1998c3	-0.1499968
86	0x3e6dbe07	0.23217021
87	0x3e819b1a	0.25313646
88	0x3e2be33f	0.16785906
89	0x3e1930ce	0.14960024
90	0x3d5fecf6	0.054669343
91	0x3e9137cb	0.2836288
92	0xbe23e2f9	-0.16004552
93	0xbebd9d9b	-0.37034306
94	0x3e055bab	0.1302325
95	0xbea148fb	-0.31500992
96	0xbe6f3d57	-0.23363243
97	0x3e11e87f	0.14248846
98	0x3e69ccfa	0.22832099
99	0xbe85e92c	-0.2615446
100	0xbce8a209	-0.028397577
101	0x3ec67a56	0.3876521
102	0xbec22077	-0.37915394
103	0xbecc0fb6	-0.39855736
104	0xbf002902	-0.5006257
105	0x3dbd24e3	0.09235551
106	0x3e949a2c	0.29023874
107	0x3eecc5f8	0.46244788
108	0x3de6d6fe	0.11271475
109	0xbe75ac36	-0.23991475
110	0xbd427a90	-0.047480166
111	0xbebb7df2	-0.36619526
112	0xbe030698	-0.12795484
113	0xbe43dff3	-0.19128399
114	0xbc26aaaa	-0.010172525
115	0x3dd070d0	0.10177767
116	0x3e9e658b	0.30936846
117	0xba9b3294	-0.0011840635
118	0x3e4350bb	0.19073765
119	0x3e6bd2d5	0.23029645
120	0x3ccb9b22	0.024854247
121	0x3c5403dd	0.012940374
122	0x3e2e8bcb	0.17045514
123	0x3e0669c5	0.13126285
124	0xbe2548f9	-0.16141118
125	0x3caa5b45	0.020795474
126	0xbec82258	-0.39088702
127	0xbee6a848	-0.45050263
128	0x3dd545c1	0.10413695
129	0xbe0337f6	-0.12814316
130	0x3e2ac023	0.16674857
131	0xbd15d16d	-0.036576677
132	0x3e923c2a	0.28561527
133	0xbe325e21	-0.1741872
134	0x3cde3e8e	0.027129438
135	0xbdb992d6	-0.0906121
136	0xbead5aea	-0.33858424
137	0x3ed2655d	0.4109296
138	0x3eb8db54	0.36104834
139	0x3d6f7630	0.05846232
140	0xbf7b4a20	-0.9815998
141	0x3eae7312	0.34072167
142	0x3ecfdf4d	0.40600052
143	0x3ea3bcec	0.31980073
144	0x3f353a4e	0.7079209
145	0x3f39835c	0.72466063
146	0xbf040b41	-0.5157967
147	0xbdb49604	-0.08817676
148	0x3f1fc61b	0.6241166
149	0x3cbf12c3	0.023324376
150	0x3d103e66	0.035215758
151	0xbd885b53	-0.06658044
152	0xbe0e5f90	-0.13903642
153	0x3f414e03	0.7550966
154	0x3efec3c3	0.4975873
155	0x3f015f6d	0.50536233
156	0xbf152768	-0.58263254
157	0x3e9ddbdd	0.30831805
158	0xbf0cb037	-0.5495638
159	0x3eca8f0f	0.3956227
160	0x3e106b3f	0.14103411
161	0x3e86adbb	0.2630442
162	0xbde2d95c	-0.11076614
163	0xbe9017b5	-0.28143087
164	0xbea2c9c7	-0.3179457
165	0xbe4b86e6	-0.19875678
166	0xbcf169af	-0.02946934
167	0x3e9c273a	0.30498677
168	0xbd5410a8	-0.051773697
169	0x3e8f77c5	0.28021064
170	0xbf0111e6	-0.50417936
171	0x3e856040	0.26049995
172	0x3eb3c7b8	0.3511331
173	0xbdb71de7	-0.0894125
174	0x3e031829	0.12802185
175	0x3ebd5d71	0.36985353
176	0xbe56e0a1	-0.20984127
177	0xbe09feb3	-0.13476066
178	0xbeab388d	-0.33441582
179	0xbedec495	-0.43509355
180	0xbe2094fe	-0.15681836
181	0x3e020e5a	0.12700787
182	0xbef62616	-0.48075932
183	0x3d88f8e1	0.06688095
184	0x3d7fe7ac	0.0624768
185	0xbed92d41	-0.42417338
186	0xbd90e042	-0.07074024
187	0x3ef9ad65	0.48765102
188	0xbe210063	-0.15722804
189	0x3ec3f065	0.38269344
190	0x3aad2bcc	0.0013211905
191	0xbd545d17	-0.05184659
192	0x3df46e9a	0.11935158
193	0x3b66034c	0.003509718
194	0x3e26c5e4	0.16286427
195	0xbe34e197	-0.1766418
196	0xbd93c3cf	-0.07215082
197	0xbeb5dc5b	-0.3551968
198	0x3c0eef5d	0.008724061
199	0xbe602bfc	-0.21891779
200	0x3da39e37	0.079891615
201	0x3cefe30a	0.029283065
202	0xbdea3514	-0.11435905
203	0x3e87de12	0.26536614
204	0x3d67ac73	0.056560945
205	0x3e552e59	0.20818461
206	0x3a870ef3	0.0010304138
207	0x3e6c82e6	0.23096809
208	0xbe51f13f	-0.20502184
209	0x3ed451d0	0.41468668
210	0x3d88f954	0.066881806
211	0xbde7680e	-0.11299144
212	0xbec48ea1	-0.38390067
213	0x3eb28ec8	0.34874558
214	0xbc8f6602	-0.017504696
215	0xbd96d7b9	-0.073653646
216	0x3e91d2f4	0.28481257
217	0xbea49eec	-0.32152498
218	0x3e46f645	0.19429882
219	0xbeb612f9	-0.3556135
220	0xbeb19285	-0.34682098
221	0x3ee992fc	0.45619953
222	0x3d6b1ad7	0.057398643
223	0x3f0086bc	0.5020559
224	0x3d4360b4	0.047699645
225	0x3e711fcd	0.23547287
226	0x3dd7fb26	0.1054595
227	0x3ed465b0	0.4148383
228	0x3e26d09f	0.1629052
229	0x3f0b1e6c	0.54343295
230	0xbe37f251	-0.1796353
231	0xbedbdb59	-0.42940786
232	0x3d166763	0.03671969
233	0x3d431a41	0.04763246
234	0x3ed9e49b	0.42557225
235	0x3e6c5bea	0.23081937
236	0xbe085f93	-0.13317709
237	0xbd41bfee	-0.04730218
238	0x3cc15664	0.023600765
239	0x3d028259	0.03186259
240	0xbdc6e08c	-0.09710798
241	0xbeeac479	-0.45853022
242	0x3f79db87	0.976006
243	0xbdbd9904	-0.09257701
244	0x3f3887e2	0.7208234
245	0x3e84caa5	0.25935856
246	0xbf6a5b85	-0.915459
247	0xbf5214fc	-0.8206327
248	0x3b3a7b2a	0.002845476
249	0xbecac4fa	-0.39603406
250	0x3f120dc7	0.5705227
251	0x3c8a696a	0.016895968
252	0xbd56d0b9	-0.052445147
253	0x3f412f91	0.75463206
254	0x3eb8c3c5	0.3608686
255	0xbcccb923	-0.024990624

fc2_u.bias f4 [20]
0	0x3db59e33	0.08868065
1	0x3d7c7184	0.061631694
2	0x3d72aac6	0.059244893
3	0xbdf728db	-0.120683394
4	0x3d1eb694	0.03874834
5	0x3d0ea0b5	0.03482123
6	0xbd193b27	-0.037409928
7	0x3db36533	0.087595366
8	0xbba6ee4f	-0.0050943266
9	0xbca69d0b	-0.020338556
10	0xbda2c097	-0.0794689
11	0x3d335fac	0.04379241
12	0xbdc6cf13	-0.09707465
13	0x3b096fd9	0.0020971207
14	0x3d4c13b1	0.049823467
15	0xbe85f6f1	-0.26164964
16	0x3e86c6d9	0.26323584
17	0x3d13a131	0.036042396
18	0xbe9b8960	-0.30378246
19	0xbd1e8481	-0.038700584

fc3_u.weight f4 [20, 20]
0	0x3ea26fa4	0.317258
1	0x3de38cff	0.11110877
2	0xbcb9dc6f	-0.022688119
3	0x3e92d5d5	0.28678766
4	0xbe13469a	-0.14382401
5	0xbdeb140c	-0.11478433
6	0xbef79bfc	-0.48361194
7	0x3e075976	0.1321772
8	0xbe16ba3f	-0.14719485
9	0x3eda359f	0.42619035
10	0xbd8e7e91	-0.069577344
11	0x3e4ec05c	0.20190567
12	0x3c3f3b34	0.01167183
13	0x3e9a1ff0	0.3010249
14	0x3e0e57f7	0.13900743
15	0x3ebb11ad	0.36536923
16	0xbea35a0e	-0.31904644
17	0x3e110423	0.14161734
18	0x3e922269	0.28541878
19	0xbe711e2b	-0.23546664
20	0xbe299170	-0.16559386
21	0xbe828b95	-0.25497118
22	0xbe2cace4	-0.16862828
23	0x3df09df6	0.11748879
24	0xbe2d1a11	-0.16904475
25	0xbe9ae7d8	-0.30255008
26	0x3ebd2f05	0.36949936
27	0xbdc34ad1	-0.095357545
28	0xbe106892	-0.1410239
29	0xbeaf1232	-0.3419357
30	0xbd235389	-0.039874587
31	0xbd33d0b5	-0.04390021
32	0xbf1e87a7	-0.6192574
33	0x3e1e7ac5	0.1547652
34	0xbc619531	-0.01376848
35	0x3e28a341	0.16468526
36	0x3eaca777	0.33721516
37	0xbe488442	-0.19581702
38	0x3e712830	0.23550487
39	0x3ebc251d	0.36747065
40	0x3e5d0f9e	0.21587989
41	0x3ea2fcd6	0.31833524
42	0xbe2da118	-0.16955984
43	0x3ccfdae3	0.025372928
44	0x3d8dee19	0.06930179
45	0x3e8f47dd	0.27984515
46	0x3e91ba0f	0.28462264
47	0x3e4aa9c8	0.19791329
48	0xbdd6e8eb	-0.10493644
49	0x3eb896ce	0.36052555
50	0xbc14e490	-0.009087697
51	0xbe408a5b	-0.18802778
52	0x3e9bf39a	0.3045929
53	0x3e7e60b3	0.24841575
54	0x3d5c2eef	0.053755697
55	0xbc87afa8	-0.016563252
56	0xbddd5dec	-0.1080893
57	0xbd9bc01b	-0.076050006
58	0x3e10edee	0.14153263
59	0xbd9f9365	-0.07791785
60	0x3e96fb0b	0.29488406
61	0x3cef6a6c	0.02922555
62	0xbd4be8b9	-0.04978249
63	0x3e9ddb22	0.30831248
64	0xbd4d08ea	-0.05005733
65	0xbe33cbdd	-0.17558236
66	0x3e007699	0.12545241
67	0xbebdc033	-0.370607
68	0xbeb09663	-0.34489736
69	0xbd9345ec	-0.07191071
70	0x3e9e0357	0.30861923
71	0x3f0b8ba0	0.54509926
72	0x3ec46428	0.38357663
73	0xbe927c0c	-0.28610265
74	0xbda85c1c	-0.082206935
75	0xbee06fb3	-0.4383522
76	0xbef61860	-0.48065472
77	0xbec88747	-0.39165708
78	0xbe184b38	-0.14872444
79	0x3e22c5d6	0.15895781
80	0x3da8d50b	0.0824376
81	0x3d8e0a9e	0.06935619
82	0x3e57f6a9	0.21090187
83	0x3d37d775	0.04488321
84	0xbe02c01f	-0.12768601
85	0xbec1d818	-0.3786018
86	0x3ed08988	0.40729928
87	0xbe8ae9f3	-0.27131614
88	0xbe6601e5	-0.2246166
89	0xbe9b1537	-0.30289623
90	0x3e0cdbf8	0.13755786
91	0xbe3e0765	-0.18557508
92	0xbe52debb	-0.20592777
93	0x3e936a11	0.2879186
94	0x3e800abf	0.250082
95	0x3c9d1348	0.019174233
96	0x3eb37743	0.35051927
97	0xbe75989f	-0.23984002
98	0xbd83a0dc	-0.06427166
99	0x3e5acf32	0.21368101
100	0xbe74db0a	-0.23911682
101	0x3ec72d91	0.38901952
102	0x3e028c6c	0.12748879
103	0x3e3f05ab	0.18654506
104	0xbe7b232e	-0.24525139
105	0x3e327094	0.17425758
106	0x3e7993f2	0.24372843
107	0x3e81c87d	0.25348273
108	0xbe89f6af	-0.26946017
109	0x3d8c55b2	0.068522826
110	0xbef7e099	-0.48413542
111	0xbe842103	-0.25806436
112	0x3e0c7af2	0.13718775
113	0x3eedfe4e	0.46483082
114	0x3ea0be65	0.3139526
115	0xbe3a7801	-0.1820984
116	0xbeb321ee	-0.34986824
117	0xbde62e7e	-0.112393364
118	0x3df3424e	0.11877881
119	0xbe90b099	-0.28259733
120	0x3f0029ef	0.50063986
121	0x3ee5530d	0.44789925
122	0x3c998659	0.01874082
123	0x3cb1a8c2	0.021686915
124	0xbe990611	-0.2988744
125	0x3e5d2ea9	0.2159983
126	0xbe8891e5	-0.2667381
127	0xbd8e9ce7	-0.069635205
128	0x3ebca8ef	0.36847636
129	0x3ec220c4	0.37915623
130	0x3ef16736	0.47149056
131	0xbeb5e72f	-0.35527942
132	0xbeb289ad	-0.34870663
133	0x3d4cb10a	0.049973525
134	0x3ce7783b	0.028255573
135	0xbe9d76c0	-0.30754662
136	0x3eb71c0c	0.35763586
137	0x3f019a9f	0.5062656
138	0xbef23a62	-0.47310168
139	0xbd930c33	-0.07180061
140	0xbd00ba41	-0.031427626
141	0xbeb937b0	-0.361753
142	0xbe2beeb8	-0.16790283
143	0x3efb65c3	0.49101076
144	0xbe608460	-0.21925497
145	0x3e57d64e	0.21077845
146	0xbce25b61	-0.027631463
147	0xbe48b6b0	-0.1960094
148	0x3f01cbaf	0.5070142
149	0x3ea9e7f6	0.33184785
150	0x3d8e787a	0.06956573
151	0x3e5d0759	0.21584834
152	0x3e806493	0.25076732
153	0xbe8c0060	-0.27344036
154	0x3ee90b01	0.45516208
155	0x3ea30be6	0.31845015
156	0xbe5263e2	-0.20545915
157	0x3e584590	0.21120286
158	0xbe2fc9bf	-0.17166804
159	0xbda8637b	-0.082220994
160	0xbdbb2d00	-0.091394424
161	0xbe42f3b6	-0.19038281
162	0x3e8fa434	0.28054965
163	0xbe407d9d	-0.18797918
164	0x3e7f8dcd	0.24956436
165	0xbe51b644	-0.20479685
166	0xbdb6daf1	-0.089284785
167	0x3eea250f	0.45731398
168	0x3e56779b	0.20944063
169	0x3e862719	0.26201704
170	0xbe82bb67	-0.25533602
171	0x3e28c15f	0.16480015
172	0xbe0c96af	-0.13729356
173	0x3d368596	0.04456099
174	0x3eac5569	0.33658913
175	0x3b22da15	0.0024849225
176	0xbd8b3e36	-0.06798975
177	0xbe151c18	-0.14561498
178	0xbd670420	-0.05640042
179	0xbe5a18f1	-0.21298577
180	0x3dae3ad2	0.08507313
181	0xbd320710	-0.043463767
182	0x3e9e711a	0.30945665
183	0xbef8aa6a	-0.48567516
184	0xbef30075	-0.47461286
185	0x3d3c40c0	0.045960188
186	0x3e96ada7	0.2942936
187	0xbe75fabf	-0.24021433
188	0xbd975348	-0.073889315
189	0xbeeb93f9	-0.46011332
190	0xbdb0c845	-0.086319484
191	0x3ecd591f	0.40107056
192	0x3d9d103a	0.076691106
193	0x3e9664a8	0.2937367
194	0x3ec98282	0.39357382
195	0xbeb00f42	-0.3438664
196	0x3f65b5b1	0.89730364
197	0xbeb3b5a2	-0.35099512
198	0xbf9c4d9e	-1.2211187
199	0x3df326ce	0.11872636
200	0x3ed3d036	0.4136979
201	0x3e33620a	0.17517868
202	0x3e758d6c	0.2397973
203	0x3e1d0a01	0.15335847
204	0xbd628b27	-0.055308487
205	0x3e78a42c	0.24281377
206	0x3e39b424	0.18135124
207	0xbe83ce4b	-0.25743327
208	0x3d8f9d5f	0.07012438
209	0xbe88f918	-0.26752543
210	0xbe4517a0	-0.19247293
211	0x3f25fd13	0.64839286
212	0x3e0a8736	0.13528141
213	0xbe343d36	-0.17601475
214	0x3dbf3353	0.09335961
215	0x3e4ac665	0.19802244
216	0xbe4560eb	-0.19275253
217	0x3e5d2b2d	0.21598502
218	0xbf00316e	-0.50075424
219	0xbc0d885b	-0.008638467
220	0x3d57ddea	0.052701868
221	0xbf0ebd53	-0.55757636
222	0x3eaaad00	0.33335114
223	0xbd16e87d	-0.03684281
224	0x3cdce7c7	0.026965989
225	0x3e26847d	0.16261478
226	0x3e16c3ce	0.14723131
227	0xbe94281c	-0.2893685
228	0xbc226c7a	-0.009913558
229	0x3e1ceffb	0.1532592
230	0x3eca169a	0.3947037
231	0x3ea489d1	0.32136396
232	0x3dd02b8c	0.10164556
233	0xbd53e885	-0.05173542
234	0xbeead46e	-0.45865196
235	0xbd8a9f40	-0.06768656
236	0x3c561b87	0.0130680865
237	0x3ebe64e3	0.37186345
238	0x3d8c535c	0.06851837
239	0xbeb7e19a	-0.35914308
240	0xbf1d91c3	-0.6155054
241	0xbf054ea8	-0.52073145
242	0x3db3d4ce	0.08780824
243	0x3e4621d0	0.19348836
244	0x3e73996d	0.23788996
245	0xbefb0455	-0.49026743
246	0x3eda6f3e	0.42662996
247	0xbd663770	-0.056205213
248	0xbcb69033	-0.022285556
249	0xbea70d70	-0.3262744
250	0xbd1531af	-0.036424335
251	0xbe913494	-0.28360426
252	0x3e0095aa	0.12557092
253	0x3eb91d63	0.36155233
254	0xbe8d3b6c	-0.27584398
255	0x3e98568a	0.29753524

fc3_u.bias f4 [20]
0	0x3dbfb6d4	0.093610436
1	0x3b12ac20	0.0022380427
2	0x3d440392	0.047854967
3	0xbdd6b3f3	-0.10483541
4	0x3c1526cc	0.009103488
5	0x3d218122	0.03942979
6	0x3db5b469	0.08872301
7	0xbde8fee8	-0.113767445
8	0x3da7467e	0.08167742
9	0x3e53ce3e	0.20684144
10	0x3d9f358a	0.07773884
11	0xbdcffdb0	-0.10155809
12	0xbdd2c257	-0.10290974
13	0xbda6aca2	-0.08138396
14	0xbdec2459	-0.1153037
15	0xbca104e6	-0.019655656
16	0xbd78addd	-0.060712684
17	0xbbbced10	-0.0057655647
18	0x3da8e50e	0.08246814
19	0xbd412109	-0.047150645

fc4_u.weight f4 [20, 20]
0	0xbebf0d64	-0.37314904
1	0x3e8d3cbd	0.27585402
2	0xbd2dfb6f	-0.042476114
3	0x3ee89704	0.45427716
4	0x3d3f52ec	0.04670994
5	0x3df11df2	0.1177329
6	0x3e0bd4a7	0.13655339
7	0xbe9e49d0	-0.3091569
8	0xbd56030b	-0.052248996
9	0x3f05ac17	0.52215713
10	0x3e94fff8	0.2910154
11	0x3e78b8bd	0.24289222
12	0x3e269f39	0.16271676
13	0xbe48b0a7	-0.19598638
14	0xbea4d93e	-0.32196993
15	0xbee44c52	-0.44589478
16	0xbeba81f1	-0.36427262
17	0xbf09ae01	-0.53781134
18	0xbe06d686	-0.13167772
19	0xbcfa869c	-0.030581765
20	0x3c16fc57	0.009215436
21	0xbe5dc78b	-0.21658151
22	0xbdb33e99	-0.08752174
23	0x3fc7fbeb	1.5623754
24	0x3ec24c3f	0.37948796
25	0xbec3362f	-0.38127276
26	0xbec4a496	-0.3840682
27	0xbdfda398	-0.12384719
28	0xbdfcdfc1	-0.12347365
29	0x3f063d3f	0.52437204
30	0xbe03da63	-0.12876277
31	0x3efc1168	0.4923203
32	0x3e95f9a9	0.29292038
33	0x3e356d4a	0.17717472
34	0xbd38751f	-0.04503357
35	0xbedc2043	-0.42993364
36	0xbe202f88	-0.15643132
37	0xbf2a1f61	-0.6645413
38	0x3e31fd1a	0.17381707
39	0xbf1b6442	-0.60699856
40	0xbe19f80e	-0.15036032
41	0xbed60808	-0.41803002
42	0xbe3aab2b	-0.18229358
43	0x3e211415	0.15730317
44	0xbe288f66	-0.16460952
45	0xbe58460e	-0.21120474
46	0x3f047e20	0.5175495
47	0xbe1301b2	-0.14356115
48	0xbcec25d9	-0.02882664
49	0x3e80090e	0.25006908
50	0xbe8429e6	-0.25813216
51	0x3e2f25d9	0.17104281
52	0xbee958e1	-0.45575622
53	0xbe3c0a15	-0.18363221
54	0xbcf60dfe	-0.030035969
55	0xbeb27f14	-0.34862578
56	0xbf054cf0	-0.5207052
57	0x3e9bd76a	0.30437785
58	0xbc46e60a	-0.0121398065
59	0xbe911521	-0.28336433
60	0x3f01804d	0.50586396
61	0xbd3c0fe8	-0.045913607
62	0x3cc2e4d3	0.023790753
63	0x3e0b655b	0.13612883
64	0xbd06e2f2	-0.032931276
65	0x3e75dff9	0.2401122
66	0x3eace64e	0.3376946
67	0x3e9cdb6c	0.30636156
68	0xbe526671	-0.20546891
69	0xbe2680e0	-0.162601
70	0x3e422d9b	0.1896271
71	0xbc53544e	-0.012898518
72	0xbe8b60b8	-0.27222228
73	0x3eeadfbe	0.45873827
74	0x3db39ff6	0.087707445
75	0x3cc013ee	0.023447003
76	0xbed449ce	-0.41462559
77	0x3ecba004	0.3977052
78	0xbe6ff4a1	-0.23433162
79	0xbea5dde2	-0.32395846
80	0xbe5ee534	-0.21767122
81	0xbd5ab080	-0.05339098
82	0xbea78e64	-0.32725823
83	0xbe3bedd5	-0.18352444
84	0x3e4a8c8e	0.1978018
85	0xbe3b97f6	-0.18319687
86	0xbea2d719	-0.3180473
87	0xbe1acd40	-0.15117359
88	0x3e143dd4	0.1447671
89	0xbe83fcef	-0.2577891
90	0xbe2bb07a	-0.16766539
91	0x3ea23ee5	0.3168861
92	0xbe985cfe	-0.29758447
93	0x3e901e4d	0.28148118
94	0xbeb40414	-0.3515936
95	0xbe9d5fbe	-0.30737108
96	0xbdcab4fd	-0.09897802
97	0xbeaf1cd7	-0.3420169
98	0xbd3ba6a8	-0.045813233
99	0xbe23615c	-0.15955108
100	0x3e13dec5	0.14440449
101	0xbec2843f	-0.3799152
102	0x3d1ad9f7	0.037805524
103	0x3d9e2d03	0.07723429
104	0x3d6df283	0.058092605
105	0x3eee4e21	0.46543983
106	0x3e804971	0.2505603
107	0x3d691c0a	0.056911506
108	0x3de942d6	0.11389701
109	0x3d97a7e2	0.07405068
110	0xbea4c4f3	-0.3218151
111	0xbece3a9f	-0.402791
112	0xbe96b8c5	-0.29437843
113	0xbe914ce6	-0.2837898
114	0x3e802dc9	0.2503493
115	0xbe83046c	-0.2558931
116	0x3eaf15f5	0.3419644
117	0x3f30dd8a	0.6908804
118	0xbedb571d	-0.428399
119	0x3df1beca	0.11803968
120	0xbe898a63	-0.26863393
121	0x3d8036af	0.0626043
122	0xbdbdb677	-0.09263318
123	0x3f01422d	0.504916
124	0xbe7c1f63	-0.24621348
125	0xbbd1ab65	-0.0063986056
126	0x3dd0f8a2	0.10203673
127	0xbe21dd4b	-0.15807073
128	0xbee9ad14	-0.4563986
129	0xbe8c5427	-0.27407953
130	0x3eaf43f6	0.34231538
131	0xbd4c6739	-0.04990313
132	0xbefbfbc6	-0.49215525
133	0xbe4fc249	-0.20288958
134	0x3e38ee47	0.18059646
135	0xbf16490c	-0.5870521
136	0xbee423a2	-0.44558436
137	0x3d8e21e8	0.06940061
138	0xbeb7d2f9	-0.35903147
139	0xbd84b32c	-0.06479487
140	0x3e0ae5d5	0.13564236
141	0x3e10d1a7	0.14142476
142	0xbebf02d8	-0.37306857
143	0xbe9ff557	-0.31241867
144	0xbea5bfe3	-0.3237296
145	0xbf05aec7	-0.52219814
146	0xbd90511a	-0.07046719
147	0x3f03d2d5	0.5149358
148	0xbe19997f	-0.1499996
149	0x3ec11e8b	0.37718615
150	0xbea62d96	-0.32456654
151	0xbd270111	-0.0407725
152	0xbe81716b	-0.25281844
153	0x3d220b68	0.03956166
154	0x3ca3d63d	0.019999618
155	0xbef5f5ab	-0.48038992
156	0xbd5f2010	-0.054473937
157	0xbf170423	-0.5899069
158	0xbe03db3b	-0.12876599
159	0x3e815fcd	0.25268403
160	0x3e8db4ca	0.27676994
161	0x3e9de9ea	0.30842525
162	0x3d6a0f2e	0.057143383
163	0xbed43bbd	-0.41451827
164	0xbec9b2ad	-0.3939413
165	0x3e3921b5	0.18079264
166	0x3d3037f2	0.043022104
167	0x3e1925ac	0.14955777
168	0xbd1c04a0	-0.03809035
169	0xbe354eb7	-0.17705809
170	0xbd3ddc63	-0.046352755
171	0xbd9a3892	-0.07530321
172	0xbda047b9	-0.0782618
173	0xbedf3573	-0.43595466
174	0x3ea56805	0.32305923
175	0x3e2d8c0f	0.1694796
176	0x3d9bf271	0.076146014
177	0x3eba43f7	0.36379978
178	0xbe1a4b8a	-0.15067878
179	0xbe4f8cbd	-0.20268531
180	0x3d8d286f	0.06892478
181	0xbf03048d	-0.5117882
182	0xbe6ecec6	-0.23321065
183	0xbdf6554f	-0.1202799
184	0xbdfa52ee	-0.12222849
185	0xbe540de2	-0.20708421
186	0x3e3f3899	0.18673934
187	0x3f9e0d11	1.2347738
188	0x3e9fbe95	0.3120009
189	0x3db91a7f	0.09038257
190	0xbea74b7c	-0.32674778
191	0x3ea44d12	0.3209005
192	0xbe0c9d7e	-0.13731954
193	0x3e9ee128	0.31031156
194	0xbe56e94b	-0.20987432
195	0xbe08aa94	-0.1334632
196	0x3ee3d2b7	0.444967
197	0xbe18b70e	-0.1491358
198	0xbf12c5bf	-0.57332987
199	0xbc9c5391	-0.019082816
200	0x3d15a261	0.03653181
201	0x3f07c679	0.5303722
202	0xbe4009e4	-0.18753773
203	0xbe7d61cd	-0.2474434
204	0xbe3ece9b	-0.18633501
205	0x3e2b6c11	0.16740443
206	0xbeb2b4a5	-0.34903446
207	0x3e9ff95e	0.3124494
208	0xbdebb4e1	-0.11509109
209	0xbe882e1d	-0.26597682
210	0xbea35339	-0.3189943
211	0xbe91f068	-0.28503728
212	0x3ea0f1d1	0.3143449
213	0x3ef50f38	0.47863173
214	0x3cb5f5b2	0.022211883
215	0xbda953d3	-0.08267941
216	0x3ed9a2ed	0.42507115
217	0xbed00449	-0.4062827
218	0xbd0a2a7b	-0.03373192
219	0x3e303f08	0.17211545
220	0xbcffd3a9	-0.031228857
221	0x3f141d7d	0.57857496
222	0x3dd64776	0.10462849
223	0xbe9ede3f	-0.31028935
224	0x3ea9f672	0.33195835
225	0xba88fdc1	-0.0010451601
226	0x3e542ec7	0.20720969
227	0xbee1b84d	-0.44085923
228	0x3e9bc467	0.3042328
229	0xbe4d9b0e	-0.2007868
230	0xbe8c4b62	-0.27401263
231	0xbddeaee5	-0.10873202
232	0x3cc78fd1	0.02436057
233	0x3e08798d	0.13327618
234	0xbeee1eb4	-0.465078
235	0xbd951ab2	-0.07280482
236	0xbeb20023	-0.3476573
237	0xbf4b0031	-0.7929717
238	0xbe83e5f0	-0.25761366
239	0x3eb91332	0.36147457
240	0xbdc0e462	-0.094185606
241	0x3ef2dc6b	0.4743379
242	0x3e231bb1	0.15928532
243	0x3d5f0b52	0.054454155
244	0x3efb9a2d	0.49141064
245	0x3e5fb592	0.21846607
246	0x3ec574cf	0.3856568
247	0xbe30658f	-0.17226242
248	0xbec421fe	-0.38307184
249	0x3ce60c4a	0.028082032
250	0x3d8ae1f9	0.06781382
251	0xbecfb35f	-0.40566537
252	0x3e349899	0.17636336
253	0x3ef83f7f	0.48485944
254	0x3eac4b3e	0.33651155
255	0xbe917153	-0.28406772

fc4_u.bias f4 [20]
0	0x3d922c95	0.071374096
1	0xbda4e2d7	-0.08051079
2	0x3c836d15	0.016043225
3	0x3d542315	0.05179127
4	0xbcd35fd1	-0.025802525
5	0x3b3429f7	0.0027490833
6	0xbe0b7a88	-0.1362096
7	0xbdef258a	-0.11677082
8	0x3e17da25	0.1482931
9	0xbe670eac	-0.2256419
10	0xbdb216fb	-0.086957894
11	0x3de0d078	0.10977262
12	0x3d637aec	0.05553715
13	0xbe1ec7ea	-0.15505949
14	0xba072b87	-0.00051563274
15	0xbd8de8bc	-0.06929156
16	0xbe0f5e14	-0.14000732
17	0xbc435b7c	-0.011923667
18	0x3d91fd6c	0.071284145
19	0x3d871f8f	0.06597816

fc5_u.weight f4 [20, 20]
0	0xbd2e9cf2	-0.042630143
1	0x3d40cbad	0.04706924
2	0x3e6c1b97	0.230574
3	0x3e365c1f	0.17808579
4	0xbe260867	-0.16214143
5	0x3e1457f6	0.1448668
6	0xbe4fa73c	-0.20278639
7	0xbd949f66	-0.07256965
8	0xbf04cbe7	-0.5187363
9	0xbe0f4680	-0.13991737
10	0xbe719711	-0.23592784
11	0x3f150574	0.58211446
12	0x3f1b6c3b	0.6071202
13	0xbd70bf14	-0.058775976
14	0xbd68132c	-0.05665891
15	0xbe88d022	-0.26721293
16	0xbee5c378	-0.44875693
17	0xbef1e4a9	-0.47244766
18	0x3e4d0cb6	0.2002438
19	0xbe5c20b7	-0.21496855
20	0x3c916b2b	0.017751297
21	0x3dda8aab	0.1067098
22	0xbdd1ad2f	-0.1023811
23	0xbf189cb2	-0.596141
24	0x3c9225fb	0.017840376
25	0xbc1f7a8d	-0.009733808
26	0x3e4e75ff	0.201622
27	0xbe6e39a7	-0.2326418
28	0x3e14ac58	0.14518869
29	0xbe9ddd45	-0.30832878
30	0xbe9f31c9	-0.3109267
31	0x3dfa2122	0.12213351
32	0xbf0add75	-0.54244167
33	0x3e0ccbfe	0.13749692
34	0xbd9061bd	-0.07049892
35	0xbe021efa	-0.12707129
36	0x3ec76ceb	0.38950285
37	0xbdfa24ed	-0.12214074
38	0x3e38856f	0.18019651
39	0xbe864ba6	-0.2622959
40	0x3e5cd78d	0.21566601
41	0xbe04ccda	-0.1296877
42	0x3ef65bd8	0.48116946
43	0x3dc14640	0.09437227
44	0xbe1bb309	-0.15205015
45	0xbeae3641	-0.34025767
46	0xbe1204f5	-0.14259703
47	0xbd3efd5c	-0.04662834
48	0x3ebc26d1	0.36748365
49	0x3e7749d0	0.24149251
50	0x3e4f63c6	0.20252904
51	0xbee42206	-0.44557208
52	0xbe35fb40	-0.17771626
53	0x3e913505	0.28360763
54	0xbeaeeb60	-0.34163952
55	0x3c136921	0.008997233
56	0x3eb1d44a	0.34732276
57	0x3e64189c	0.22275013
58	0xbe3f1bd3	-0.18662958
59	0x3d9d9aa4	0.07695511
60	0x3f1c05a3	0.609461
61	0x3f58407b	0.8447339
62	0x3e640cbc	0.22270483
63	0xbe5aad47	-0.21355163
64	0xbdd0ffd7	-0.102050476
65	0xbf0c187c	-0.5472486
66	0xbe0d7308	-0.13813412
67	0x3ebb0da3	0.36533841
68	0xbe8f624b	-0.2800468
69	0x3dcb040c	0.09912881
70	0x3eaf47cf	0.34234473
71	0xbda9dd6b	-0.08294185
72	0xbe626a1f	-0.22110794
73	0xbc0732bb	-0.008251841
74	0xbc06f97e	-0.0082381945
75	0xbe529942	-0.20566276
76	0x3e9b3cf1	0.30319932
77	0x3e9b693c	0.30353725
78	0x3cfd7875	0.030941227
79	0x3debc6a2	0.115124956
80	0x3f4367bf	0.7633018
81	0x3f1faaeb	0.62370175
82	0x3e2e0d2c	0.16997212
83	0xbde36c36	-0.11104624
84	0x3e192274	0.14954549
85	0xbebf57d2	-0.3737169
86	0x3dfd749c	0.12375757
87	0xbd335e34	-0.04379101
88	0xbe1b656f	-0.15175413
89	0xbe6bc927	-0.23025952
90	0xbeb29762	-0.3488112
91	0x3e85d365	0.26137844
92	0x3edad8e5	0.42743602
93	0xbead024b	-0.33790812
94	0xbcb56479	-0.022142636
95	0xbf265984	-0.6498034
96	0x3e92e433	0.28689727
97	0x3e66d4e0	0.22542143
98	0xbdd342eb	-0.10315498
99	0xbe9ef9ea	-0.31050044
100	0x3e46b0c5	0.1940337
101	0x3ed7ed89	0.42173412
102	0xbed09770	-0.40740538
103	0xbf0ada7b	-0.54239625
104	0xbea53dc4	-0.32273686
105	0xbeb24700	-0.34819794
106	0x3ea9443f	0.3305988
107	0xbe383ab7	-0.17991148
108	0xbe2193e3	-0.1577907
109	0xbd725164	-0.05915965
110	0xbea983e0	-0.33108425
111	0xbe559d23	-0.20860724
112	0x3e892147	0.267832
113	0xbe08c327	-0.13355695
114	0xbe6f7a1b	-0.23386423
115	0x3d2d7799	0.042350385
116	0xbd90de87	-0.07073694
117	0xbe89dcc0	-0.2692623
118	0x3edc9c22	0.4308787
119	0xbe813950	-0.25239038
120	0x3e604233	0.21900253
121	0x3ea06d12	0.31333214
122	0x3ec2a439	0.38015917
123	0x3f0c790a	0.5487219
124	0x3ebc3188	0.3675654
125	0xbeb1501e	-0.34631437
126	0x3ed63481	0.41836932
127	0x3e2f6cf4	0.17131406
128	0xbe054ca5	-0.13017519
129	0xbdac7799	-0.08421249
130	0xbdd7efcd	-0.10543785
131	0x3ebd1a71	0.36934236
132	0x3deaa5a9	0.114573784
133	0xbd943edd	-0.07238553
134	0x3ed38fb9	0.4132059
135	0xbdd12055	-0.10211245
136	0x3e60cb16	0.21952471
137	0xbdf9f8f8	-0.1220569
138	0xbe171aec	-0.14756364
139	0x3cb5d037	0.022194011
140	0xbe2b19d4	-0.16709071
141	0x3e0075c2	0.12544921
142	0xbd9bd659	-0.07609243
143	0xbba0cc31	-0.004907154
144	0x3ebd64f0	0.36991072
145	0xbe9f4356	-0.3110606
146	0x3e9d4081	0.30713275
147	0x3f0d4517	0.5518355
148	0xbef3f1d2	-0.47645432
149	0x3ef0c491	0.47024968
150	0x3ed65fc8	0.4186995
151	0xbed7e8b2	-0.4216972
152	0x3e89cfe2	0.26916414
153	0x3cee3418	0.029077575
154	0xbc470fe3	-0.012149784
155	0x3e15f733	0.1464508
156	0x3e30f3d7	0.17280518
157	0x3ebbc954	0.3667704
158	0xbe60a2ec	-0.2193715
159	0x3eddd6dd	0.4332799
160	0x3eb46a76	0.35237473
161	0x3de5f5e9	0.11228544
162	0xbeb23fc7	-0.34814283
163	0xbdb2b92b	-0.08726724
164	0xbe3211e2	-0.17389634
165	0xbf0ef4aa	-0.5584208
166	0xbe595eea	-0.21227613
167	0x3e4fd0dd	0.20294519
168	0x3e3d7b8d	0.18504162
169	0x3dbae5b5	0.091258444
170	0x3e9c500e	0.30529827
171	0x3e894f55	0.26818338
172	0x3e9321ab	0.28736624
173	0x3eb2ffbc	0.34960735
174	0x3e95851c	0.29203117
175	0xbeacc734	-0.3374573
176	0xbe077264	-0.1322723
177	0x3ceacdd0	0.028662592
178	0xbda11db1	-0.07866991
179	0x3e062e48	0.13103592
180	0xbf0b0922	-0.5431081
181	0xbf6854c3	-0.90754336
182	0xbf3fa1ca	-0.74856246
183	0xbe905cc6	-0.2819578
184	0xbf2069f0	-0.6266165
185	0xbe1e070d	-0.15432377
186	0xbf9ff05e	-1.2495229
187	0xbeba9908	-0.3644488
188	0xbebbf2b4	-0.36708605
189	0xbe2b5172	-0.16730288
190	0x3e886018	0.26635814
191	0x3f03ebcf	0.5153169
192	0xbd8ec0dc	-0.06970379
193	0x3e413af2	0.18870142
194	0x4014dd0d	2.3259919
195	0xbc5ecd6e	-0.013598783
196	0xbd234408	-0.0398598
197	0xbf2ef0a9	-0.6833597
198	0x3fc09be0	1.5047569
199	0xc04d59b7	-3.2086008
200	0x3ef33862	0.47503954
201	0x3f122397	0.57085556
202	0x3e7067e0	0.23477125
203	0x3eb8cc6d	0.36093464
204	0xbe72f022	-0.23724416
205	0xbdf7cca7	-0.12099581
206	0xbec036f7	-0.37541935
207	0xbe71b47c	-0.23604006
208	0x3e560378	0.2089976
209	0x3ef0d144	0.47034657
210	0xbeeaf0ce	-0.45886844
211	0x3bc64db1	0.006051742
212	0xbd7d5f38	-0.061858386
213	0x3e6a84fb	0.2290229
214	0x3e33ac7b	0.17546265
215	0x3e89c10a	0.2690509
216	0x3d0cdeba	0.034392096
217	0xbeb5f92c	-0.35541666
218	0x3e3feea6	0.18743381
219	0xbdc1ed15	-0.09469048
220	0xbebd0b76	-0.36922807
221	0xbd0b38a1	-0.033989552
222	0xbe62c6c5	-0.22146137
223	0x3cef6a9d	0.029225642
224	0x3ccdc9f0	0.025120705
225	0xbd937edd	-0.072019316
226	0xbe3ba66d	-0.18325205
227	0xbd963888	-0.07335001
228	0x3d1cce50	0.038282692
229	0xbe80e706	-0.25176257
230	0x3e950de2	0.29112154
231	0x3cf20137	0.029541595
232	0xbecc1935	-0.3986298
233	0xbecd1088	-0.40051675
234	0x3e92a535	0.28641668
235	0xbd53ad6d	-0.051679064
236	0xbe5d3940	-0.2160387
237	0xbdf29902	-0.1184559
238	0xbe2ef560	-0.1708579
239	0xbdf2eb8f	-0.118613355
240	0xbeb4f0ed	-0.35340062
241	0xbe8578cc	-0.26068723
242	0x3e05a5a2	0.13051465
243	0xbeb9f6d9	-0.36321142
244	0xbec1ea7b	-0.37874207
245	0x3ee39da0	0.44456196
246	0x3d99f3bb	0.07517191
247	0xbe8a27b5	-0.2698342
248	0x3e2f82da	0.1713976
249	0x3e106ef7	0.1410483
250	0xbea6db3b	-0.32589135
251	0xbecd3de0	-0.4008627
252	0xbe515885	-0.20443924
253	0xbebb4186	-0.36573428
254	0xbe998b4b	-0.29989085
255	0x3ed2ba2a	0.41157657

fc5_u.bias f4 [20]
0	0x3e729206	0.23688516
1	0xbce2fcb2	-0.027708385
2	0xbc2fc839	-0.010728889
3	0xbd8aaac3	-0.067708515
4	0xbd80dd49	-0.06292207
5	0xbd91aedb	-0.07113429
6	0xbd2a3219	-0.041551683
7	0xbe3ed873	-0.18637256
8	0x3dab24eb	0.08356651
9	0xbe96e45d	-0.29471102
10	0x3d80b408	0.06284338
11	0xbdd75b38	-0.105154455
12	0x3bc76c6b	0.0060859225
13	0x3e0b62cd	0.13611908
14	0x3d4508b0	0.04810399
15	0xbe00e818	-0.12588537
16	0xbcb59113	-0.022163903
17	0x3e1c7156	0.15277609
18	0xbd9f1201	-0.07767106
19	0xbd8144a9	-0.06311924

fc6_u.weight f4 [20, 20]
0	0x381c01f5	3.719512e-05
1	0x3ebd0c17	0.36923286
2	0x3e8f399e	0.27973646
3	0x3f4c2bad	0.79754144
4	0x3f5d3405	0.864075
5	0xbea5df5c	-0.32396972
6	0xbea7a6bb	-0.32744393
7	0x3e9d5cce	0.30734867
8	0xbe0dfbad	-0.13865538
9	0xbe4f791e	-0.20261046
10	0xbf39cdc3	-0.7257959
11	0xbf88cd14	-1.0687585
12	0xbee27a91	-0.44234136
13	0xbcd4b204	-0.02596379
14	0xbe673718	-0.2257961
15	0xbc6d0293	-0.014465946
16	0xbf13ac99	-0.5768524
17	0xbede9604	-0.43473828
18	0x3ebf4c4b	0.37362894
19	0xbe5f3c65	-0.21800382
20	0x3dd3b198	0.10336608
21	0x3d574160	0.05255258
22	0xbe153926	-0.14572582
23	0x3e84a0d3	0.2590395
24	0x3e97ce8f	0.2964978
25	0x3f097ea7	0.5370888
26	0xbf1dbcd6	-0.61616266
27	0x3e156591	0.14589526
28	0x3f041082	0.5158769
29	0xbd9cdf4f	-0.0765978
30	0xbe12ce8b	-0.14336602
31	0x3dcfd26e	0.10147558
32	0xbebcb50f	-0.36856887
33	0x3e528f64	0.20562512
34	0xbe860fe3	-0.26183996
35	0xbef95d41	-0.4870396
36	0xbf145719	-0.579454
37	0x3ea00d04	0.3125993
38	0xbeacdd84	-0.33762753
39	0xbeccf2da	-0.4002903
40	0x3da47aba	0.08031221
41	0xbec02fad	-0.37536374
42	0xbebbd8a2	-0.36688715
43	0xbe5c734d	-0.21528359
44	0x3ebc968f	0.36833617
45	0x3e19bb52	0.15012863
46	0xbeb62e09	-0.35581997
47	0xbe859a36	-0.26094216
48	0x3c6d3b23	0.014479431
49	0x3eb35935	0.35028997
50	0x3ee619e2	0.44941622
51	0x3e2ba901	0.16763689
52	0xbea20421	-0.31643775
53	0x3e3c9bed	0.18418856
54	0xbe1c010a	-0.15234771
55	0x3eb4aad6	0.35286587
56	0x3e86ad55	0.26304117
57	0xbecd34f4	-0.40079463
58	0xbd3f2776	-0.046668492
59	0xbe23745c	-0.15962356
60	0xbd97bfe8	-0.0740965
61	0x3e846985	0.25861755
62	0xbe4795bf	-0.19490717
63	0xbdc92f43	-0.098234676
64	0xbe230055	-0.15918095
65	0x3e8dc615	0.27690187
66	0x3ee98464	0.4560882
67	0x3cc3851a	0.023867179
68	0x3ee021eb	0.43775877
69	0x3e5361af	0.20642732
70	0xbe878040	-0.26465034
71	0x3ea137c7	0.31487867
72	0xbed677f6	-0.41888398
73	0x3cb3ddea	0.021956403
74	0xbe79ba09	-0.24387373
75	0xbdae0ac0	-0.08498144
76	0xbe6b08cd	-0.22952576
77	0xbdd58977	-0.1042661
78	0x3da8b2f6	0.08237259
79	0xbda480f8	-0.08032411
80	0x3edec5b1	0.43510202
81	0xbdc36ebd	-0.09542606
82	0xbc5cf5ee	-0.013486369
83	0x3debeff2	0.11520375
84	0xbe0112d2	-0.12604836
85	0x3dc7dbc9	0.097587176
86	0x3c2b6ddc	0.010463204
87	0x3de1b3a6	0.11020593
88	0x3e8c114a	0.2735694
89	0xbf4b3a26	-0.793856
90	0x3df906c8	0.121594965
91	0x3ec24118	0.37940288
92	0xbd96936b	-0.073523365
93	0x3eccc376	0.39992875
94	0xbec05415	-0.3756415
95	0xbe06b288	-0.13154042
96	0xbcdc982f	-0.026928036
97	0xbe835481	-0.2565041
98	0xbedcc70c	-0.4312061
99	0x3d3a9078	0.045547932
100	0x3ef9d2a1	0.4879351
101	0xbe4d71a8	-0.20062888
102	0xbeadfbb2	-0.3398109
103	0xbba01e50	-0.004886426
104	0xbcb64c28	-0.022253111
105	0x3eb38e5c	0.3506955
106	0xbed120af	-0.40845248
107	0xbe475560	-0.19466162
108	0xbe86d1c1	-0.26331905
109	0x3c48e5e6	0.012261843
110	0xbdc5da91	-0.09660829
111	0xbdfa1202	-0.12210466
112	0x3f0c8452	0.54889405
113	0xbe8be7fa	-0.27325422
114	0x3e292bab	0.16520564
115	0xbe1ae769	-0.15127338
116	0xbde9a544	-0.11408475
117	0xbe9ae582	-0.30253226
118	0xbe101083	-0.14068799
119	0xbcc31938	-0.023815736
120	0x3f096979	0.53676564
121	0xbe288c01	-0.16459657
122	0xbec5ff7d	-0.38671485
123	0xbf077d4f	-0.5292558
124	0xbdcf7cc3	-0.10131218
125	0xbd1e1152	-0.038590737
126	0xbe6b75be	-0.22994134
127	0xbedbd9f7	-0.4293973
128	0xbdd9b580	-0.106303215
129	0x3cc7a8ac	0.024372421
130	0xbd8f0852	-0.06984009
131	0x3ead9d74	0.3390919
132	0xbe20e851	-0.15713622
133	0xbf0138e3	-0.5047743
134	0xbdbbe45c	-0.091744155
135	0xbe84220b	-0.25807223
136	0xbe83b509	-0.25724056
137	0xbead450f	-0.3384175
138	0xbd891b90	-0.0669471
139	0xbebdd241	-0.37074474
140	0xbe309d14	-0.1724742
141	0x3f0d98ed	0.5531147
142	0x3e29b640	0.16573429
143	0x3eb40e79	0.35167292
144	0xba80c532	-0.0009824394
145	0x3ebdf194	0.37098372
146	0x3e82d5c4	0.25553715
147	0xbe9ef11e	-0.31043333
148	0xbcd9af00	-0.026572704
149	0xbdb86191	-0.09002984
150	0x3e8bf10a	0.27332336
151	0x3ca5fd5a	0.020262409
152	0x3e49682a	0.19668642
153	0x3cc70640	0.024294972
154	0xbdbe00fb	-0.09277531
155	0xbe2e2eda	-0.1701006
156	0xbdc918eb	-0.09819206
157	0x3f12d5bb	0.57357377
158	0x3dcf673b	0.101271115
159	0xbd191c6c	-0.03738062
160	0x3e933038	0.28747725
161	0xbb101822	-0.002198704
162	0x3ca9d329	0.020730572
163	0x3ea136b1	0.3148704
164	0x3ee04787	0.4380457
165	0xbe9802e8	-0.29689717
166	0x3d334e8b	0.043776076
167	0xbe7f03d1	-0.249038
168	0x3cdd37f6	0.027004223
169	0x3e704ece	0.23467562
170	0xbe9177e9	-0.28411797
171	0xbd1625f6	-0.036657296
172	0xbe5601af	-0.2089908
173	0xbd45831e	-0.048220746
174	0xbe8eb641	-0.27873424
175	0x3efd8550	0.49515772
176	0xbe18501b	-0.14874308
177	0x3e427d61	0.18993141
178	0xbea32dea	-0.31870967
179	0x3ea26171	0.31714967
180	0xbe8f7f55	-0.28026834
181	0xbedf96fb	-0.43669876
182	0x3e318b24	0.17338234
183	0x3d618a53	0.055063557
184	0xbcdc23fd	-0.02687263
185	0xbd49ba77	-0.049250092
186	0x3d6d3d07	0.05791953
187	0x3efe5561	0.49674514
188	0x3e9c8306	0.30568713
189	0xbe9befa9	-0.30456284
190	0xbd50328e	-0.050829463
191	0x3ec498f6	0.3839795
192	0xbebe89bd	-0.3721446
193	0xbe4b847d	-0.19874759
194	0x3e84c45c	0.2593106
195	0xbd9aafd9	-0.075530715
196	0xbe056bcb	-0.13029401
197	0x3ed5722f	0.41688678
198	0xbf0c23da	-0.54742205
199	0xbd01da72	-0.031702466
200	0xbd552849	-0.052040372
201	0x3ead5b67	0.33858797
202	0xbdecec15	-0.115684666
203	0x3ecc5fd9	0.39916876
204	0x3cc5de8d	0.024153972
205	0x3dac7137	0.084200315
206	0x3e511897	0.20419537
207	0xbe58877e	-0.21145436
208	0xbee674c6	-0.45010966
209	0x3ef5fc26	0.48043936
210	0x3da85334	0.08218995
211	0x3de5d56b	0.11222347
212	0x3ecff287	0.4061472
213	0xbd310c5d	-0.04322468
214	0x3eb80016	0.35937566
215	0x3d8c5406	0.06851964
216	0x3db0345c	0.08603737
217	0xbecea3f7	-0.4035947
218	0x3a7acddf	0.00095674203
219	0xbda6c393	-0.081427716
220	0x3d427235	0.047472198
221	0x3d9bfcea	0.07616599
222	0xbcce5a38	-0.025189504
223	0x3e812ed9	0.25231054
224	0xbeb7dc09	-0.3591006
225	0xbea7e69c	-0.32793128
226	0xbeaeaf2d	-0.34118024
227	0xbe69ce1c	-0.2283253
228	0xbe91de30	-0.28489828
229	0xbe4b3327	-0.19843732
230	0xbe8c043c	-0.2734698
231	0x3e898cde	0.26865286
232	0x3e881725	0.26580158
233	0x3e8e8586	0.27836245
234	0x3e4973f3	0.19673137
235	0xbce0243c	-0.027361028
236	0xbdcd4b57	-0.100241356
237	0x3e8a0cc8	0.26962876
238	0xbecc4e2e	-0.39903396
239	0xbef10829	-0.47076538
240	0xbc6c397b	-0.014418001
241	0xbed494be	-0.4151973
242	0x3dbd21d7	0.0923497
243	0x3e7157f9	0.23568715
244	0xbd036990	-0.032083094
245	0x3e241664	0.16024166
246	0xbcc844d9	-0.024446892
247	0xbe961af7	-0.29317448
248	0xbef250a4	-0.4732715
249	0x3e770466	0.24122772
250	0xbe0fedde	-0.14055583
251	0x3ed6b9d3	0.41938648
252	0x3eeb5ac4	0.45967686
253	0x3ec945c5	0.39311042
254	0x3ea5a0dd	0.3234929
255	0xbe8ad964	-0.2711898

fc6_u.bias f4 [20]
0	0xbc6da0cd	-0.01450367
1	0x3dc0f576	0.09421818
2	0x3d2e829e	0.042605035
3	0x3de15e2c	0.1100429
4	0x3d6dcc6a	0.058056273
5	0x3dc0452f	0.09388196
6	0x3d49a0d2	0.049225636
7	0x3db1f7a0	0.08689809
8	0xbe113a6d	-0.14182444
9	0xbded400e	-0.11584483
10	0x3c8e5e99	0.017379092
11	0xbd44e862	-0.04807318
12	0xbd34b854	-0.0441211
13	0xbe428b35	-0.18998416
14	0x3b41fb93	0.0029599413
15	0xbcc40a78	-0.023930773
16	0xbc41145b	-0.011784638
17	0xbc9c1a2a	-0.019055445
18	0xbe36146c	-0.17781228
19	0xbcd73e66	-0.026274871

fc7_u.weight f4 [20, 20]
0	0x3e83658f	0.2566342
1	0xbdd3a3b8	-0.10333961
2	0x3dc9193c	0.09819266
3	0x3eb35041	0.35022166
4	0xbd2a9622	-0.041647084
5	0x3e345483	0.17610364
6	0x3df3456c	0.118784755
7	0x3c1b036d	0.009461266
8	0xbdc66fb5	-0.09689275
9	0x3ead1b9b	0.33810124
10	0xbe8e4745	-0.2778875
11	0x3d348e94	0.044081286
12	0xbe63a029	-0.22229065
13	0x3ebbe191	0.3669553
14	0x3eb8d784	0.36101925
15	0xbe4ceb9b	-0.20011751
16	0xbe8b9dd7	-0.2726886
17	0x3e7b7aad	0.24558516
18	0x3ed45fbc	0.4147929
19	0xbe0d58d8	-0.13803422
20	0x3e759065	0.23980863
21	0x3e4575e2	0.1928325
22	0x3ea9a031	0.3313003
23	0xbec02ce9	-0.37534264
24	0xbe9b1444	-0.302889
25	0xbea63631	-0.3246322
26	0x3dd229d8	0.10261887
27	0xbd84a0f0	-0.06476009
28	0x3f28b1d3	0.6589634
29	0xbe8c2f19	-0.27379683
30	0x3bc437c1	0.0059880917
31	0x3d609e09	0.054838214
32	0x3c2de248	0.010613032
33	0x3e01091a	0.12601128
34	0x3da56006	0.08074956
35	0xbe8ce520	-0.27518559
36	0x3ebb183c	0.36541927
37	0xbe0522f0	-0.13001609
38	0x3c1f2495	0.009713312
39	0x3e9a4302	0.30129248
40	0xbee4cb73	-0.4468647
41	0xbec4775b	-0.3837231
42	0x3ed360f7	0.41284916
43	0xbbc9a153	-0.0061532645
44	0xbe3dec36	-0.18547139
45	0xbe2224e3	-0.15834384
46	0xbdcb37b2	-0.099227324
47	0xbeb84364	-0.35988915
48	0x3e121fe0	0.14269972
49	0x3e107abb	0.14109318
50	0x3f170fe5	0.5900863
51	0xbea9b699	-0.33147123
52	0x3dc4502f	0.09585606
53	0x3e8690ad	0.26282254
54	0xbe3a777b	-0.1820964
55	0xbe33c472	-0.17555407
56	0xbde3544b	-0.11100062
57	0x3f0ec541	0.55769736
58	0xbe2327cd	-0.15933152
59	0x3e54b63c	0.20772642
60	0x3ea3215a	0.31861383
61	0xbe9bcbff	-0.30429074
62	0x3e30f31d	0.1728024
63	0x3eed6cf2	0.4637218
64	0xbe62ae93	-0.22136907
65	0xbe11de27	-0.142449
66	0x3d3bf6a0	0.045889497
67	0xbf2a5a28	-0.6654382
68	0xbe292d1e	-0.16521117
69	0xbee7fa51	-0.45308164
70	0xbee71512	-0.45133263
71	0xbd848f0c	-0.064725965
72	0x3f55dfd5	0.83544666
73	0xbda5d1a2	-0.08096625
74	0xbd7db00e	-0.061935477
75	0x3ee662a7	0.4499714
76	0x3d88e990	0.066851735
77	0x3f066fe4	0.5251448
78	0xbe5616ac	-0.20907086
79	0x3e4faaf4	0.20280057
80	0xbb846774	-0.004040653
81	0xbe024a5d	-0.1272368
82	0xbd722967	-0.059121516
83	0xbe9b0b8f	-0.30282256
84	0xbe55a81c	-0.2086491
85	0xbf53d965	-0.8275359
86	0xbeeaf72e	-0.45891708
87	0xbed37c97	-0.41305992
88	0x3dfe9305	0.124303855
89	0x3e78c94f	0.24295543
90	0x3f30a7ac	0.69005847
91	0x3eac820e	0.33692974
92	0xbec4283c	-0.38311946
93	0x3df34574	0.118784815
94	0xbe80c7cf	-0.25152442
95	0xbecda0f5	-0.40161863
96	0xbe6519de	-0.22373149
97	0xbeb4c28e	-0.35304683
98	0x3e8faf80	0.28063583
99	0xbcd35d65	-0.02580137
100	0xbe0e078d	-0.13870068
101	0x3d55b091	0.05217034
102	0xbdb55236	-0.08853571
103	0x3e6c9214	0.231026
104	0xba291ec3	-0.0006451422
105	0x3e6db9c4	0.23215395
106	0xbe1b068a	-0.15139213
107	0x3de1bef1	0.11022747
108	0x3ed3da3f	0.41377446
109	0x3e69c8d0	0.2283051
110	0xbe96f6e2	-0.29485232
111	0xbece4cba	-0.40292913
112	0x3e4029e7	0.18765984
113	0xbdb2ed01	-0.08736611
114	0x3e3dd0c5	0.1853667
115	0x3dae1e4f	0.08501875
116	0xbe080b8a	-0.13285652
117	0x3e8dbba7	0.2768223
118	0x3e85c3cb	0.2612594
119	0x3eabfb3c	0.33590114
120	0xbeded221	-0.4351969
121	0x3e7f5f1e	0.24938628
122	0xbe8a98dc	-0.27069747
123	0x3ed4e31b	0.41579518
124	0xbf051999	-0.51992184
125	0xbe035011	-0.12823512
126	0xbe384b17	-0.17997395
127	0xbe1f39f6	-0.15549454
128	0x3e248c67	0.16069184
129	0xbe1cf4bb	-0.15327732
130	0x3e771080	0.24127388
131	0xbec29a4b	-0.3800834
132	0x3e2aefea	0.16693082
133	0xbe3242ba	-0.17408267
134	0x3df8f867	0.12156754
135	0xbe27cec5	-0.1638747
136	0xbe0843c7	-0.13307105
137	0x3cb8b781	0.022548439
138	0xbe85214b	-0.26001963
139	0x3e3318ff	0.17490004
140	0x3f142af6	0.57878053
141	0x3e97e311	0.29665425
142	0x3e648b98	0.22318876
143	0x3e355358	0.17707574
144	0x3e400d14	0.18754989
145	0x3ebfbb5d	0.37447634
146	0x3ed1e6d1	0.4099641
147	0x3eb14c21	0.34628394
148	0x3f1d639c	0.61480117
149	0x3e0200eb	0.12695663
150	0xbe767e0f	-0.24071525
151	0x3e330da6	0.17485675
152	0xbd4b8d5a	-0.04969535
153	0xbf2d1bb0	-0.6762037
154	0x3e39c51a	0.18141595
155	0x3ed2eedf	0.4119787
156	0x3ee9663e	0.45585817
157	0x3e51cfe6	0.20489463
158	0xbe0da038	-0.1383065
159	0xbe1a66ef	-0.15078329
160	0xbe908f21	-0.282342
161	0x3ed402a5	0.41408268
162	0xbd9a5818	-0.07536334
163	0x3e9145c6	0.28373545
164	0x3d77d017	0.060501184
165	0xbe53913d	-0.20660873
166	0xbe8e1382	-0.27749258
167	0x3d1ff895	0.039055426
168	0x3e27dc97	0.16392742
169	0xbe1b0d62	-0.15141824
170	0x3dc8a396	0.097968265
171	0xbbe47d37	-0.0069729346
172	0x3e3a9a2e	0.18222877
173	0xbee109db	-0.43952832
174	0xbe82f40a	-0.25576812
175	0xbd9985fd	-0.07496259
176	0xbc88276c	-0.01662036
177	0x3c078785	0.0082720565
178	0xbdcd44a2	-0.10022856
179	0xbead639f	-0.33865067
180	0xbe4153c6	-0.18879613
181	0x3e75cf32	0.2400482
182	0xbeded461	-0.43521407
183	0xbe745be8	-0.23863184
184	0xbd987e83	-0.07446005
185	0x3ea0275f	0.31280038
186	0xbe82fe14	-0.2558447
187	0xbec791c4	-0.38978398
188	0xbd640321	-0.055667046
189	0x3eb824c4	0.3596555
190	0x3e5f10e6	0.2178379
191	0x3e878043	0.26465043
192	0x3ee2e52b	0.44315466
193	0x3eb48967	0.3526108
194	0x3e77cf26	0.24200115
195	0xbe63ceab	-0.22246806
196	0x3ea06719	0.31328657
197	0x3c427423	0.011868509
198	0x3e9693b6	0.2940957
199	0x3e466e2e	0.19377968
200	0xbdc9749d	-0.09836695
201	0x3e5a75dd	0.21334024
202	0x3e4f7505	0.20259483
203	0xbe79b1e5	-0.24384268
204	0x3e919d75	0.28440443
205	0x3d9bbb43	0.07604077
206	0x3eea753a	0.45792562
207	0x3ea6ae0d	0.32554665
208	0xbe156df6	-0.14592728
209	0xbe7ba486	-0.2457448
210	0x3e38313a	0.17987528
211	0xbe039937	-0.12851416
212	0x3ed17582	0.40909964
213	0xbebc7198	-0.36805415
214	0x3ebc4d6d	0.3677782
215	0xbce508b5	-0.027958253
216	0x3e158cd2	0.146045
217	0xbd427780	-0.047477245
218	0xbea15844	-0.31512654
219	0xbe82fa01	-0.25581363
220	0xbe891fee	-0.26782173
221	0xbe52e194	-0.20593864
222	0x3d96361e	0.07334541
223	0xbe6c7dec	-0.2309491
224	0x3ed49a06	0.4152376
225	0xbca7ad3c	-0.020468347
226	0x3f1f30cf	0.6218385
227	0x3e0a0ca3	0.13481383
228	0x3e0e3bed	0.13890047
229	0xbda4f10a	-0.08053787
230	0xbddb447f	-0.10706424
231	0x3f1a5b64	0.602957
232	0x3e076160	0.1322074
233	0x3ea383f8	0.31936622
234	0xbe8df600	-0.27726746
235	0x3e77b38f	0.2418959
236	0x3e598b2b	0.21244495
237	0x3cf34f14	0.029700793
238	0xbcf719b0	-0.030163616
239	0xbe8c781b	-0.27435383
240	0x3eb0ca27	0.3452923
241	0x3d74ce81	0.05976725
242	0xbea4236b	-0.32058272
243	0x3e8fe2d8	0.28102756
244	0xbef5fe2b	-0.48045477
245	0xbd8f339e	-0.06992267
246	0x3e65b480	0.22432137
247	0xbd433648	-0.04765919
248	0x3e248462	0.16066125
249	0xbe6dd86b	-0.23227088
250	0xbdd963c7	-0.10614734
251	0xbf235be1	-0.6381207
252	0xbdcd3069	-0.10018999
253	0x3e5caec3	0.21551041
254	0x3ece4d3d	0.40293303
255	0x3e91be34	0.28465426

fc7_u.bias f4 [20]
0	0xbd5aa03f	-0.05337548
1	0xbcb343c0	-0.021882892
2	0xbcfe5954	-0.031048454
3	0x3c3dc640	0.011582911
4	0xbe8a36da	-0.26994973
5	0x3d25610a	0.040375747
6	0x3d6240b3	0.055237483
7	0xbbc2d1f8	-0.0059454404
8	0x3deeaecd	0.11654434
9	0xbcfd1365	-0.030893037
10	0x3e204cbd	0.15654273
11	0xbd950af5	-0.072774805
12	0x3e2c98eb	0.16855209
13	0x3e3838e7	0.17990457
14	0x3ec512e8	0.38490987
15	0x3d489d49	0.048978124
16	0x3ca39fc5	0.019973645
17	0x3c0b2921	0.008493693
18	0x3ec4516d	0.38343373
19	0xbe003f9d	-0.12524267
